models/model_20230704131145/model.pt (torch, 118998 bytes, 14 tensors)

conv1.weight f4 [3, 1, 3, 3]
000000 0a f8 2e 3e 90 e2 7a 3e eb 6d c0 be 0a dc 8a 3e
       0.17086807 0.24500489 -0.3758386 0.27121
000010 a0 10 88 3d 67 cd bc be 8c 64 2a 3e 5d b9 1b ba
       0.06643796 -0.3687546 0.16639918 -0.0005940402
000020 05 2a 60 3e 68 0e da be 08 8e 6c be 96 7f fd be
       0.21891029 -0.42589116 -0.23101056 -0.49511403
000030 75 8b f3 3d 27 72 56 bc db 6f f6 3d a1 03 75 3e
       0.11891834 -0.0130887395 0.120330535 0.23927166
000040 9e 3e f2 3c f5 6a 89 3e b9 9f 39 3e e0 ae d4 3e
       0.029570874 0.26839414 0.18127336 0.4153967
000050 12 9b 95 3e c3 44 04 3e b8 fa 60 bd d2 2a 0c be
       0.29219872 0.12916856 -0.054926604 -0.1368821
000060 30 01 4e be 07 09 94 be 43 97 04 be
       -0.2011764 -0.28913137 -0.12948327

conv1.bias f4 [3]
000000 bc b7 22 be 9f 3e 8b 3d fe 16 99 3d
       -0.15890402 0.067990534 0.074750885

batchnorm1.weight f4 [3]
000000 dd 11 a2 3f 24 f6 a8 3f 5f 92 b8 3f
       1.2661701 1.3200116 1.4419669

batchnorm1.bias f4 [3]
000000 76 47 b5 3d b1 e5 4a bc 71 0c 15 3f
       0.08851521 -0.012383864 0.5822211

batchnorm1.running_mean f4 [3]
000000 2c d6 1b 3d b2 26 a6 3d 83 9d 01 3e
       0.038046047 0.08112849 0.12657742

batchnorm1.running_var f4 [3]
000000 8d 32 64 3c 0a e5 3c 3c de c9 ea 3c
       0.013928068 0.011529217 0.02866071

conv2.weight f4 [6, 3, 5, 5]
000000 c3 f0 39 3e ba 62 03 3e 07 79 c0 3d 02 fa 88 3d
       0.1815825 0.1283063 0.09398084 0.0668831
000010 ba 1d 95 3d db d3 2b bb 8b 85 d0 3d 73 1d cc 3c
       0.072810605 -0.0026218805 0.10181721 0.024916386
000020 76 eb 59 bc 69 c8 c9 3c bd 9d 9b bc 5a 40 de bd
       -0.013300767 0.024631696 -0.018996114 -0.10852118
000030 ec 48 e8 bd 12 66 e1 bd 06 90 d5 bd 7d 43 3f bd
       -0.11342034 -0.110057965 -0.10427861 -0.04669522
000040 a2 1a 2d be 4b cc f7 bd c4 83 70 be e1 40 cd be
       -0.16904691 -0.12099513 -0.23487765 -0.4008856
000050 2b c8 c9 bc a0 ed 8a bd e3 f9 ba bd d6 f6 9f be
       -0.02463158 -0.067836046 -0.09129693 -0.31243008
000060 c0 90 7b bd 44 f5 73 bd 03 c4 06 3e 11 41 2d 3e
       -0.06141734 -0.059560075 0.1316071 0.16919352
000070 79 83 12 3e e4 e5 a9 3d 32 db a1 3b ee 28 9d 3d
       0.14307965 0.08295801 0.00493946 0.07673822
000080 be 53 da 3d 63 53 ca 3d ee 39 25 3e d1 1c f6 bd
       0.10660504 0.09879186 0.1613538 -0.12017215
000090 49 3a 26 bd e5 6d 8b bc 87 b9 d3 bd 61 82 84 be
       -0.04058293 -0.017020175 -0.10338121 -0.2588072
0000a0 bf e5 02 be 1b 30 e4 3d e3 25 05 bd 6f 44 80 3a
       -0.12782954 0.11141988 -0.032506835 0.000978602
0000b0 7a 1c 95 3d a1 b9 72 3b 5c 52 0e 3e 59 45 6e 3d
       0.07280822 0.0037036913 0.13898605 0.058171604
0000c0 28 54 f9 3b 0e 7e 03 bd cd 9a 3f be 24 7c 97 bd
       0.007608909 -0.032102637 -0.18711396 -0.07396725
0000d0 e5 14 ae bd 6b 64 a2 bd a0 7f 13 be 77 b4 3d bd
       -0.08500079 -0.079293095 -0.14404154 -0.046314683
0000e0 b7 6d 9e bc 32 fd 65 bd 5e 35 53 3d c0 18 78 3c
       -0.019339425 -0.05614967 0.051564567 0.01514262
0000f0 d8 dc 92 3d 90 0a 35 3e fc a4 54 3e ed c2 1b 3e
       0.07171029 0.1767981 0.20766062 0.15211077
000100 f7 5c cf 3e 5c ff 94 bd b9 8d 05 3e c3 38 bc 3d
       0.40500614 -0.072752684 0.13042344 0.09190514
000110 c9 bc c3 3d 68 62 84 be 8e f9 ac bd 75 30 83 be
       0.09557492 -0.25856328 -0.08446036 -0.25622907
000120 b6 f4 49 be e3 eb bf be d8 3c 33 be 89 38 e6 bd
       -0.19722256 -0.37484655 -0.17503679 -0.11241252
000130 6f 8c 76 3d 4e d7 87 3d c2 40 b1 3c e0 a8 83 3d
       0.06019252 0.06632863 0.021637324 0.06428695
000140 ca 65 02 be c9 b6 01 be 39 b8 8b bd 41 5b 8f bd
       -0.12734142 -0.12667383 -0.06822247 -0.06999827
000150 3e 66 91 bd 9c 87 5b bd f9 70 9b be fd 0a 9b be
       -0.07099579 -0.053596124 -0.3035963 -0.3028182
000160 5f 9a da bd 11 12 3d 3c db 6c 14 be 00 39 b8 be
       -0.10673975 0.011539952 -0.1449465 -0.35980988
000170 05 33 2f bd 18 4c 91 3e 8b 0b 31 3e 1e 65 a0 be
       -0.042773265 0.28378367 0.1728956 -0.31327146
000180 20 41 c6 3d dd de c7 3e d2 67 7d 3d 9b d1 39 3e
       0.0968039 0.3903722 0.06186659 0.18146364
000190 6f cc b8 bd ff a2 66 3c 7c a5 24 3e 29 68 f0 3d
       -0.090233676 0.014076947 0.16078752 0.11738617
0001a0 a0 a8 60 bd 54 5a 5c 3b 15 26 31 be f5 e6 5e be
       -0.054848313 0.0033623176 -0.17299683 -0.2176779
0001b0 5d 07 0e be ef c2 5f 3c d5 b0 a9 bd fa 42 0f 3e
       -0.13869996 0.013657316 -0.08285681 0.13990393
0001c0 2c 00 8a 3e c0 de 8d bc eb 3d 6a be 1f de 89 bd
       0.26953256 -0.01731813 -0.22875182 -0.06731819
0001d0 4f ac 70 3e a9 2b 27 3d 1b 6b f2 be 6c fb 01 bf
       0.2350323 0.040813122 -0.4734734 -0.50774264
0001e0 a5 aa db 3d 74 45 ce bd e7 1c dd be be b9 83 be
       0.10725907 -0.10071841 -0.43186113 -0.25727648
0001f0 f4 77 46 bc 3a 2f 4f bc 1a 15 b4 3d f0 80 f6 3d
       -0.01211356 -0.012645537 0.08793087 0.120363116
000200 14 5c 5e 3d b8 7f 4e be d6 b3 2d be f8 30 11 3e
       0.05428703 -0.20165908 -0.16963133 0.14178836
000210 2d 85 37 3e 3c d1 0c be 2d 94 90 bd 25 fd 2c bc
       0.17921896 -0.13751692 -0.07059512 -0.010558401
000220 c8 1b 95 bd 23 b8 89 be bc 84 93 bd 0d d9 bb 3d
       -0.072806895 -0.26898298 -0.072030514 0.091722585
000230 c8 32 ad be 80 a9 0e bf 46 76 99 3d e9 c2 fd 3d
       -0.33827806 -0.55727386 0.07493262 0.12390692
000240 36 ea 95 bd d8 8c aa be 7c 43 cb bd da 07 e2 3d
       -0.07320063 -0.3331058 -0.09924981 0.11036654
000250 e4 7e 16 3d 4f 31 59 be a0 45 9a 3e 0e 51 45 bd
       0.036742106 -0.21210216 0.30131245 -0.048173003
000260 08 57 3b be 0b f5 76 bd ba 9d 22 3d e2 c0 69 3e
       -0.18294919 -0.060292285 0.0397012 0.22827485
000270 77 63 86 3e ce 1c 11 be 6a 56 3e 3d 13 ae 04 bd
       0.2624776 -0.14171144 0.04646913 -0.032392573
000280 4e b4 cb 3d 87 99 9c 3e bc 53 98 3d 68 ae ee 3d
       0.099465 0.30585882 0.07437846 0.11654359
000290 cf cb 11 bd 86 38 67 3c 28 8b 8b 3e 85 8f 53 3e
       -0.035594758 0.014112597 0.27254605 0.20660217
0002a0 6b a8 b3 bc f2 98 d8 3c d1 db f4 bd dd 3c 11 3e
       -0.021930894 0.026440118 -0.11955989 0.14183374
0002b0 ff 9b b9 3d 33 4e 0d 3e 12 03 5f 3d 86 39 ce 3d
       0.09062957 0.13799362 0.054446287 0.100695655
0002c0 d4 0f e9 3d f5 31 8f 3c b1 ea 85 3d b3 5e 78 bd
       0.11379972 0.017479876 0.065389045 -0.060637187
0002d0 c1 17 34 be 22 91 fa 3d 21 62 4c 3e 02 e7 57 bb
       -0.17587186 0.12234713 0.19959308 -0.0032944088
0002e0 26 be 08 3b 6d 6b ec be 7b 50 37 bd b7 f3 d1 bd
       0.002086529 -0.4617571 -0.044754487 -0.10251563
0002f0 23 61 27 bd 66 4b 5a 3e a0 df 70 be 6f 00 a6 be
       -0.04086412 0.21317825 -0.23522806 -0.32422206
000300 cf 80 94 3d ad 31 4a 3e 75 72 12 3d 70 41 38 be
       0.07251131 0.19745512 0.035753686 -0.17993712
000310 34 80 59 be ee c9 cc 3c e3 56 c8 3b 90 65 9a 3d
       -0.21240312 0.024998631 0.0061138733 0.07538903
000320 05 16 82 be 77 b9 9b 3c bb 91 d8 bd a4 25 ab bb
       -0.25407425 0.019009335 -0.10574671 -0.005222993
000330 95 3a f1 bc 46 de 77 be f0 7d 5f bd 40 b1 d5 bd
       -0.02944688 -0.24205884 -0.054563463 -0.104341984
000340 c8 a5 d0 bc 59 83 af 3d 15 9f 1c be 9c ad 46 be
       -0.025469676 0.085699745 -0.1529506 -0.19402164
000350 a7 64 42 be cb 5b e6 bd c2 83 1e bd 67 78 5e 3c
       -0.18983708 -0.11247977 -0.038699873 0.013578511
000360 46 00 82 3d d5 9a c7 bd bb ef 0f bd d2 15 54 3e
       0.063477084 -0.09746329 -0.035140734 0.20711449
000370 dc e4 f1 bc a8 6c 0e 3e c2 f4 c4 bc 99 fd a0 3d
       -0.029528074 0.13908637 -0.02404249 0.0786087
000380 3e ee ee 3c f1 e6 86 3d 4f 14 0c 3e 13 2c d4 3d
       0.029166337 0.06587017 0.13679622 0.10359969
000390 42 8b 54 3d 43 29 61 3d 26 82 40 be 12 51 f0 bd
       0.05189062 0.05497099 -0.18799648 -0.11734213
0003a0 8a 16 a0 bb 16 c9 a7 3d 8a 54 90 3d 7b 27 8b be
       -0.0048854994 0.08192651 0.070473745 -0.2717856
0003b0 04 a5 e5 be 37 f1 e7 be f2 a4 89 be 42 6a bf bc
       -0.4485246 -0.4530122 -0.26883656 -0.023366097
0003c0 bd 07 15 bd 1f bd 21 bd 45 7d a2 be f0 8a cc be
       -0.036384333 -0.039487 -0.31736198 -0.3994975
0003d0 d8 37 19 be e4 d1 35 3d 18 85 05 bd 00 39 87 bd
       -0.14962709 0.04438962 -0.03259763 -0.06602669
0003e0 fe 5b 4d bd 8d 1b 20 be 56 17 e7 bd d1 52 33 bd
       -0.05013656 -0.1563551 -0.11283748 -0.04378015
0003f0 7f 61 a2 3c 65 5c d5 bc 79 ec d4 3d 70 ae ae be
       0.01982188 -0.026045034 0.10396666 -0.3411746

conv2.bias f4 [6]
000000 57 a1 ab be 90 95 17 bf b3 c2 0d bf e0 c4 21 bf
       -0.3352153 -0.5921259 -0.5537521 -0.6319103
000010 b8 c1 15 be bd 06 8e 3c
       -0.14624679 0.017337197

fc1.weight f4 [128, 150]
000000 53 26 ce bb 97 07 2b 3e fa b3 45 3c 70 68 52 3d
       -0.0062911897 0.16702114 0.012066836 0.05136913
000010 e7 ac 97 bd d0 67 b9 3c 32 1a 76 bd 1a b3 36 bd
       -0.074060254 0.02263251 -0.060083576 -0.0446044
000020 35 21 53 3d e9 e5 6e be 66 67 97 bd 9a ba 1c be
       0.05154534 -0.23329891 -0.073927686 -0.15305558
000030 ea 57 bf bd ad 2f 1b bd 17 5e 20 be ba 12 53 be
       -0.0934294 -0.037887264 -0.15660892 -0.20612612
000040 b5 d8 ca bd 15 b7 88 3c 51 75 2d 3e 32 3c cd 3d
       -0.09904615 0.016688863 0.16939284 0.10021247
000050 94 9a 98 3d 1a ce 5a 3d 72 e0 b2 3b 24 fd bb 3d
       0.074513584 0.05341921 0.005458885 0.09179142
000060 54 42 85 bb f7 dc 6c 3e 50 3c 82 bd 9c 8a 97 3d
       -0.004066745 0.23131166 -0.0635916 0.073994845
000070 06 14 83 bd 53 7c 58 be 71 37 e5 bc 76 21 88 3d
       -0.064003035 -0.21141176 -0.027980538 0.06647007
000080 c2 0c 42 bd 23 e0 82 bd a6 12 8b 3d 4d 4e e9 3d
       -0.047375448 -0.06390407 0.06790666 0.11391888
000090 54 c3 ef 3d e5 26 83 bd 54 b4 77 3d 78 ee 81 3e
       0.11707178 -0.06403903 0.06047471 0.2537725
0000a0 28 d6 4f 3e 71 8b e7 bd 9a 62 45 bd ac 10 31 bd
       0.20296538 -0.11305893 -0.048189737 -0.04322879
0000b0 3d 00 91 3d d4 dc 28 be 5d 50 96 be bb a0 c7 be
       0.070801236 -0.16490489 -0.29358187 -0.38989815
0000c0 f1 4c c5 bd a2 bb 7d 3e 3a 45 c0 bd 87 4f 96 3c
       -0.09633816 0.24778607 -0.09388204 0.018348468
0000d0 64 76 85 3d f1 68 fd 3d 37 57 85 3d 85 9e 07 3d
       0.06516722 0.123735316 0.065107755 0.03311016
0000e0 11 a1 e2 bc 38 c3 33 3c 4b 93 38 3c 97 23 04 3d
       -0.027664693 0.010971837 0.011265586 0.032260504
0000f0 db 56 bc bc 1b 43 2e 3d b5 11 c7 bd 18 3a b1 bc
       -0.022990635 0.042544466 -0.09720174 -0.021634147
000100 e4 95 b8 3d 68 7f cb bc 04 29 77 3d ef 33 fe 3d
       0.09012964 -0.024841025 0.06034185 0.12412249
000110 d5 84 06 3c dc a6 89 bd 9e c2 0a be 30 49 a8 3d
       0.008210381 -0.06721279 -0.13550803 0.082170844
000120 15 25 01 3d 6b d1 78 bd 88 51 83 be 9f 70 3b 3b
       0.031529505 -0.06074659 -0.2564814 0.0028601063
000130 de db b0 bd e3 09 00 3b ee 45 7b 3d d5 85 63 3e
       -0.08635686 0.0019537143 0.061345987 0.22219022
000140 72 5f 2d 3d 43 b6 dd 3d 77 f2 17 3d 73 87 68 bc
       0.042327352 0.10825779 0.037096467 -0.01419245
000150 1c 9f 5c 3e cf dd 34 3b fb c9 e6 bd 18 60 c9 b9
       0.2154507 0.0027598029 -0.112689935 -0.00038409303
000160 19 80 9a 3d 7c f6 0f bc f7 31 cb be 23 b0 aa be
       0.07543964 -0.008786794 -0.39686558 -0.33337507
000170 8b 0a 66 3d 14 fc 0c 3d ac 00 05 3e e5 6a 92 bc
       0.0561624 0.034420088 0.12988538 -0.017873237
000180 5f 5a 0a 3e de 9d b4 3d 33 92 47 3e 69 48 95 3e
       0.13511036 0.08819173 0.19489364 0.29156807
000190 91 cf 88 3d 6c 50 60 bd 2b 68 29 3d 21 86 18 bd
       0.06680215 -0.054764196 0.041359108 -0.03723729
0001a0 48 4d 35 bd 29 fb 22 bd b5 8f 26 3c 27 f8 a8 bd
       -0.044263154 -0.039790306 0.010166098 -0.08250456
0001b0 bc 30 2e bc 70 99 bb 3d e0 1a 10 3d 9c 5a 13 3d
       -0.010631736 0.09160125 0.03518188 0.035975084
0001c0 02 1e f4 bd a2 6e a0 3d b4 d0 0b 3e 68 41 49 bd
       -0.11919786 0.078336015 0.13653833 -0.049134642
0001d0 aa 17 c9 bc 1d 76 d4 bd 28 df 48 3d af 61 1d 3c
       -0.024547417 -0.10374091 0.049040943 0.009605809
0001e0 ad df 44 3d 6d 70 81 be aa a9 f4 bc 80 99 0c 3e
       0.048064876 -0.25281087 -0.029866058 0.1373043
0001f0 88 11 2a 3e ae 0e 69 bd 24 e0 11 3d a3 9a 0f 3d
       0.1660825 -0.056898765 0.035614148 0.035059582
000200 e1 13 b1 3c 38 d9 a6 bd 62 5b cc 3c 3a 28 5c 3d
       0.021615924 -0.081469 0.024945918 0.0537493
000210 e7 81 5b 3d 7a ea 47 bd 65 9e 7d 3d 14 92 a2 3b
       0.05359068 -0.0488076 0.061918635 0.0049612615
000220 9e 5a b4 bd 61 b1 ce bc 30 71 44 bd af c8 5d bd
       -0.08806346 -0.025231065 -0.047959507 -0.054146465
000230 f6 52 0c 3d 34 04 be 3d 04 b7 1c bd 72 75 5f 3c
       0.034258805 0.092781454 -0.038260475 0.013638841
000240 56 b9 92 bd a8 19 6a 3e 81 5c 87 bd c4 6d 9f be
       -0.07164256 0.2286135 -0.066094406 -0.31138432
000250 96 e2 4f be 9a 9d 1b bb c3 db 28 be b5 fa 40 be
       -0.2030128 -0.002374506 -0.16490082 -0.18845637
000260 80 4d 99 bd 61 60 a4 be eb c9 5a be c6 e4 a0 be
       -0.07485485 -0.3210478 -0.21366088 -0.3142454
000270 ac 68 4c be 71 da 28 be f2 df 8b be 18 27 82 be
       -0.19961804 -0.16489579 -0.27319294 -0.2542045
000280 4b 19 a4 3c 5c ab db 3d 2d 6c a9 3d 62 d5 83 bb
       0.020031592 0.107260436 0.08272586 -0.00402324
000290 60 ac 69 3d 4e f7 02 3e d2 f3 0e 3e 55 61 91 3d
       0.057049155 0.12789652 0.13960198 0.07098643
0002a0 a8 b3 aa 3d de a8 f7 3d 37 f7 aa bd 6c a3 e5 bc
       0.08335048 0.12092756 -0.08347934 -0.028032027
0002b0 02 1a 96 bd 99 31 44 be b9 b7 32 bd d3 2d af 3d
       -0.07329179 -0.19159545 -0.043632243 0.08553662
0002c0 95 35 79 3d d6 c3 71 bd 47 e7 a8 bc d5 a2 fc 3b
       0.060842115 -0.059024654 -0.020618094 0.007709841
0002d0 b1 28 2b bd 8a ec 1c be 05 d0 64 3c 35 ba e5 bb
       -0.041786853 -0.15324607 0.013965611 -0.007010723
0002e0 e2 7d 44 3d cc f4 43 be 5e 71 3a be d9 d0 11 be
       0.047971614 -0.19136351 -0.18207309 -0.14239825
0002f0 02 78 d5 bd 2b 82 85 3c 73 52 6a bd 16 9c 09 bd
       -0.1042328 0.01629742 -0.057207536 -0.03359612
000300 58 52 e8 3b 81 66 7a bd f6 4d c6 3b 5c e4 a4 3d
       0.0070898943 -0.06113291 0.006051774 0.080513686
000310 cd 0f ac 3d d2 f1 93 bd 49 e4 77 bd df 51 83 bd
       0.08401451 -0.07223858 -0.060520444 -0.064121
000320 8c 1e cd 3d bd 08 cb 3d db 76 b0 3d 30 27 d5 bc
       0.10015592 0.09913776 0.0861642 -0.026019663
000330 5c c3 84 bc e0 02 4f 3e 71 39 5c 3e 53 13 e2 3d
       -0.016206436 0.2021594 0.21506287 0.11038842
000340 84 45 42 3d 02 ab c8 3d 22 4a 83 bd 31 83 30 3e
       0.047429577 0.09798242 -0.06410624 0.17237546
000350 47 d8 a0 3d 26 b2 2d bd 89 37 b1 3d f4 87 a5 bd
       0.07853752 -0.042406224 0.086531706 -0.080825716
000360 cc aa 18 3e 62 00 e1 bd 48 2c 5e be 66 8a 7a 3d
       0.14908904 -0.10986401 -0.2169658 0.061167143
000370 b5 40 37 3e 98 74 03 be 96 e6 eb bd 1b 37 90 bd
       0.17895778 -0.12837446 -0.1151859 -0.070417605
000380 2e 37 d7 bd 11 14 a2 bd e9 41 fd bc 89 98 19 be
       -0.105085716 -0.079139836 -0.030915217 -0.14999594
000390 fb 94 17 be 56 fa 02 3c 4f 7f a1 be 78 03 45 be
       -0.14802925 0.007994255 -0.3154244 -0.19239604
0003a0 fe b0 0e 3d 05 fd 83 bd 8d b1 b8 be 87 0e c1 bc
       0.03483676 -0.06444744 -0.3607296 -0.023566497
0003b0 d6 85 11 3e 4e 7e 69 3d 3f 93 ee bd 6a 2c b5 be
       0.1421121 0.05700522 -0.11649179 -0.35385448
0003c0 76 b8 28 3e da bd 1e 3e 78 47 72 3e 93 bb a7 bd
       0.16476616 0.1550211 0.23660076 -0.08190074
0003d0 5a 13 b7 3d 47 ba 0b bb 06 47 84 3c b9 35 a5 bc
       0.08939238 -0.0021320747 0.016147148 -0.020167219
0003e0 0d 8b 4c 3d b5 4a d8 3c a8 65 b2 bd ab 9c 95 3c
       0.049937297 0.02640281 -0.08710796 0.018263182
0003f0 6c af 28 3d 23 16 1c bd 13 d8 87 bd 9a f7 71 bd
       0.04118292 -0.03810705 -0.0663301 -0.059074022

fc1.bias f4 [128]
000000 c6 ee 89 3c 3a 55 38 bd 39 43 c6 bc c4 d9 18 3e
       0.016837489 -0.045003153 -0.024201976 0.14926821
000010 2e 81 09 3d f6 16 b2 bd 5d 97 85 bd 50 8a 01 3e
       0.03357046 -0.08695786 -0.06523011 0.12650418
000020 4f 5a 1d 3d 26 19 b9 3d ab cb 07 bd 70 02 39 be
       0.038416203 0.09038 -0.033153217 -0.18067336
000030 0f e4 2c bc 0f 3e 2b bd d2 6c bd 3d 86 92 04 be
       -0.01055242 -0.04180723 0.092492715 -0.1294652
000040 4e 16 3d ba dc 81 18 be 15 fb 93 3d 1a cf 04 bd
       -0.00072131015 -0.14893287 0.072256245 -0.03242407
000050 54 d6 26 3d 5b f3 9c bd 21 af 6b 3c 51 0f 9e 3d
       0.040731743 -0.07663604 0.014385016 0.07717765
000060 2a ad e5 bd 7d eb 25 3e 07 a8 e5 bd d8 65 a0 bd
       -0.11214669 0.16203113 -0.11213689 -0.07831925
000070 4b d7 a5 3b 45 16 17 bd 5a 8e c6 bd 34 6c f6 bd
       0.0050610653 -0.036886472 -0.0969512 -0.12032357
000080 70 c2 24 3d b9 74 f5 bc 73 91 60 bd f3 2f a9 3d
       0.040224493 -0.029962884 -0.05482621 0.08261099
000090 b2 69 ba bd 97 d6 d1 bd 6f d2 9e bd 56 b4 77 bc
       -0.09102191 -0.10246008 -0.07754981 -0.015118679
0000a0 b4 64 33 be ed 4e d9 bc a7 2a b1 3c 27 90 e2 bc
       -0.17518884 -0.026526893 0.021626784 -0.027656628
0000b0 9c 39 db bd f0 8c 40 3c 4c 2f 51 bc 68 19 0d 3e
       -0.107043475 0.011752352 -0.012767624 0.13779223
0000c0 66 ea 0f 3e 6f c9 f9 bd 71 9b f1 bc f9 15 9b 3c
       0.1405426 -0.121966235 -0.029493066 0.018931376
0000d0 9a a8 09 3c 19 34 3a bd 1c f6 8a 3d 92 cf c0 bd
       0.008402014 -0.04545984 0.06785223 -0.09414591
0000e0 7e 5c 20 3d bf 05 16 be 23 77 b9 bd 8d 9f 9c bd
       0.039150707 -0.1465063 -0.09055927 -0.076476194
0000f0 f2 62 6d 3d 28 55 f3 3c c0 67 6a 3e 0b 46 29 bd
       0.05795569 0.029703692 0.2289114 -0.041326564
000100 b7 77 87 bd b0 a6 d6 3d e3 93 7e 3c a7 3f b8 bd
       -0.06614631 0.10481012 0.015538189 -0.08996516
000110 fc 84 b8 bd 6f 12 b8 bd 16 cc c2 bd 3a 00 30 3d
       -0.0900974 -0.08987891 -0.095115826 0.042968966
000120 c4 bd 31 bd b7 9a 1d bd 51 4c 59 3d a7 69 bc 3d
       -0.043393865 -0.038477626 0.053051297 0.09199839
000130 19 bc c0 bd 5d a7 ec bd e6 8a 8d bd b0 10 44 3e
       -0.09410877 -0.115553595 -0.069112584 0.19146991
000140 80 a2 8d 3d 31 c9 2a bd c4 28 9d bd cb 58 ad bd
       0.0691576 -0.041695777 -0.07673791 -0.084642015
000150 80 50 12 3e f3 9f 8b bd 14 eb 89 bd b0 ff 0a be
       0.14288521 -0.06817617 -0.06734291 -0.135741
000160 18 c0 1d 3d a2 df 83 38 ff df de 3d 4d e6 b6 3d
       0.038513273 6.2882216e-05 0.108825676 0.08930645
000170 80 9d 31 bd 01 77 b2 3d 3d 95 dc 3b 4b 45 8f bd
       -0.043363094 0.087141044 0.006731658 -0.069956385
000180 da 62 84 3d 0f a2 b7 3b 17 f4 9c bc dd 9b 41 3d
       0.06464167 0.0056040357 -0.01915936 0.047267783
000190 d0 9e 1a be 4b 73 50 3d 8d 68 dd 3b 2a cb 2a bd
       -0.15099645 0.050891202 0.006756848 -0.04169766
0001a0 f0 91 6f bc 57 84 85 bc 95 b5 ce bd 01 3a 0d 3d
       -0.014622197 -0.016298456 -0.10093228 0.034479145
0001b0 be 7f 25 be fd ac 8c 3d 4d 77 be bc 53 1a 8d bd
       -0.16162011 0.068689324 -0.023250246 -0.068897866
0001c0 3e 13 85 3a 2d 8b 83 bc 06 64 8e bd bd 8d 49 bd
       0.0010152829 -0.016057575 -0.06952672 -0.049207438
0001d0 d4 40 a3 3c cd 73 e8 bc 12 91 94 3d ea 06 07 3c
       0.019928373 -0.02837553 0.072542325 0.008241395
0001e0 20 a5 cb 3b d1 2c 02 bc 7a f1 c3 bd 6a 61 f3 bc
       0.006214753 -0.007945255 -0.095675424 -0.029709537
0001f0 2a 38 01 3d 47 ef b6 bd 09 45 1a 3e 6e 79 ea bd
       0.031547703 -0.08932357 0.15065397 -0.11448942

fc2.weight f4 [64, 128]
000000 d8 b1 d3 3c a1 e7 a0 3d af 43 c7 3d fa 83 50 3d
       0.025841638 0.0785668 0.097297065 0.050907113
000010 03 d6 65 3d c4 0b c0 3c df a4 6e 3e 20 f4 d2 3d
       0.0561123 0.02344311 0.23305081 0.103004694
000020 4a ef f6 bd a6 8f 6f bb 92 3d 78 bd 91 4c 20 be
       -0.120573595 -0.0036554127 -0.060605593 -0.15654208
000030 e5 c6 9b 3e 43 71 2f bd e6 88 12 bd cb ed 8c bd
       0.30425182 -0.042832624 -0.035775088 -0.06881293
000040 bd 86 ae 3d 6c b1 3f be ce 52 44 3e c5 05 49 bd
       0.08521793 -0.18720025 0.19172212 -0.049077768
000050 e9 29 62 bd 78 dd 3f 3d d6 f8 0e 3d 74 6d 80 bd
       -0.05521575 0.04684207 0.034905277 -0.062708765
000060 14 7b 33 bd dd 12 9e 3e 29 40 c0 bd c1 5d a8 3b
       -0.04381855 0.30873767 -0.093872376 0.0051381295
000070 b4 04 86 be e5 a1 1d be 64 5d 02 bd 0c 63 f2 3a
       -0.26175463 -0.15393789 -0.031827345 0.0018492653
000080 5e 7f 5f 3d 45 31 4d 3e f2 68 53 3e 63 4d 32 3d
       0.054564826 0.20038326 0.20645502 0.043530833
000090 64 96 ea 3d ae 62 b0 3c 58 41 59 bd 0a b1 97 3d
       0.11454466 0.02153143 -0.053040832 0.074068144
0000a0 ea cd c6 3b 8b 6e 9c 3c 3b 39 44 3c 83 3c 73 bd
       0.0060670273 0.01909568 0.011976535 -0.05938388
0000b0 c4 69 12 bd 95 ea e6 3d 0a 59 58 3e ce fa cc bd
       -0.035745397 0.11275212 0.21127716 -0.10008775
0000c0 36 e0 93 3d 1e ad 9a 3c 1a f7 a4 3d 9c 84 11 be
       0.07220499 0.018881377 0.080549434 -0.14210743
0000d0 87 da 82 3d 80 90 f2 3d 17 70 ca 3d 9f a7 21 be
       0.06389337 0.118439674 0.09884661 -0.15786599
0000e0 e5 24 87 bc 4d 3d 52 bc 87 30 f7 3d 0f bf 0e bd
       -0.016497085 -0.012831998 0.12069803 -0.034850176
0000f0 25 95 33 bd a7 71 df 3d cd eb 17 3e 4c 74 45 3d
       -0.043843407 0.10910349 0.14836045 0.048206612
000100 4e ff 9a bd c0 6f a8 3b 82 98 0a bd f0 47 2d bd
       -0.07568227 0.0051402748 -0.03383685 -0.042304933
000110 07 8b f5 bd 4d 6d 7a bd c6 27 c3 bd 00 49 b3 bd
       -0.11989408 -0.061139394 -0.095290706 -0.08754158
000120 d2 48 61 3d 79 cb c6 bc 6c 0a 2a 3c c7 75 ed bd
       0.055001087 -0.024266945 0.010378461 -0.1159473
000130 9b e0 7d be 7a 7f 2c 3e 3e e5 8e 3d 03 ff 99 3d
       -0.24792711 0.16845503 0.06977318 0.07519343
000140 0c 15 64 3c 24 f2 27 be 36 0e b0 3d ab d5 19 3e
       0.013921034 -0.16400963 0.085964605 0.15022914
000150 1f 1e c5 3d be 88 45 bb 70 19 96 3c df 9e 5c 3d
       0.09624886 -0.003014132 0.018322676 0.05386245
000160 98 11 8a 3d c4 9a e0 bd 78 c2 6b bd 42 b6 8b bc
       0.06741637 -0.10967019 -0.057558507 -0.01705468
000170 7a 95 53 ba dd a3 56 bd 27 f0 d9 bd 9c cc b8 bd
       -0.0008071285 -0.052402366 -0.106415085 -0.09023401
000180 78 a5 89 3e 70 c9 06 bc e6 57 15 3d 24 3a 89 3c
       0.26884055 -0.008226737 0.03646078 0.016751356
000190 ae f4 ba bd 3d 4c df 3b c4 41 24 3e e7 91 bb bd
       -0.091287 0.0068145082 0.16040713 -0.09158688
0001a0 ae 77 c7 bd 04 3c 05 bd 1a e8 65 bd 17 1a 9c bd
       -0.09739624 -0.03252794 -0.056129552 -0.07622164
0001b0 36 4f ce bd 83 01 31 bd b8 df 59 bc 2a 49 26 3e
       -0.10073702 -0.043214332 -0.013297968 0.16238847
0001c0 e1 cc 94 bc db d6 d3 3d 48 10 26 be 06 2a 04 3e
       -0.0181641 0.10343715 -0.16217148 0.12906656
0001d0 b3 1d 93 3c c7 d4 52 3d 64 0d 14 be e5 ca 27 3e
       0.017958498 0.05147245 -0.14458233 0.16385992
0001e0 de fc 50 bc 00 56 20 3e 29 63 6f bd c4 fa 58 3b
       -0.012755601 0.15657806 -0.058444176 0.0033108452
0001f0 97 f4 1f bd 4f d9 61 be f4 cc 40 3d d2 c4 03 be
       -0.03905162 -0.22055553 0.04707046 -0.1286805
000200 33 a9 3e 3d 14 7d fe 3d 20 6f 88 3d 6c b5 44 be
       0.04654808 0.124262005 0.066618204 -0.19209832
000210 16 b6 e3 3d ec 39 85 bc 96 1b b2 3d bb b4 14 be
       0.111187145 -0.01626297 0.08696668 -0.14522068
000220 16 9f 71 be e7 f3 ef 3d 88 51 dc bd f0 2e 89 3d
       -0.23595843 0.117164426 -0.10757738 0.06698406
000230 15 01 d7 bd f9 ed 9a 3d c2 38 87 be 2a 5d 7c 3d
       -0.10498253 0.07564921 -0.2641049 0.061612286
000240 8b ed 02 be 06 da 27 bc 73 35 b3 bb fb 20 1f 3e
       -0.12785928 -0.010244852 -0.005469018 0.15539925
000250 f1 38 28 be 3b 8d b7 3d f8 07 fb 3c c1 62 84 be
       -0.16427971 0.089624844 0.030643448 -0.25856593
000260 49 50 a8 3d fa 07 30 3d f6 07 eb 3a a1 e7 bc bb
       0.08218438 0.042976357 0.001793145 -0.005764917
000270 19 9f 1e bc f2 24 cd bd 8f dd 1c 3e 9e f7 90 be
       -0.0096814865 -0.100168124 0.15318893 -0.28313917
000280 b9 b2 71 be f3 9e a5 3e 8d 6c 8d 3d 0c 45 cb 3d
       -0.23603334 0.3234783 0.0690547 0.09925279
000290 13 8d 46 3d 14 55 dc bd 37 36 d8 3d 76 c8 db 3d
       0.048474383 -0.10758415 0.10557216 0.10731594
0002a0 78 ae 07 3d 85 1f 37 be 9b 18 ba 3d 91 01 91 bd
       0.03312537 -0.17883117 0.09086724 -0.07080377
0002b0 2b 8f f2 3d ca 3e 05 3e 55 fc c7 3d 8c 4f e0 bd
       0.118437134 0.13012233 0.097649254 -0.10952672
0002c0 bb 76 b4 bd 77 4e 25 3d 8f ce 40 bd f2 96 87 3c
       -0.088117085 0.040358033 -0.04707199 0.016551469
0002d0 29 df af 3c 46 c2 16 3b 00 34 c2 be bb 51 25 3e
       0.021468716 0.002300398 -0.37930298 0.16144459
0002e0 24 77 5c bd 28 6d 8b 3c ea 1d 20 bd 63 9e c4 3b
       -0.05382456 0.017019823 -0.03909103 0.0060003265
0002f0 85 9b b2 3d 69 13 a5 3c f0 03 0d 3d da 8c a2 3d
       0.08721069 0.020150857 0.034427583 0.079370216
000300 3a a3 5f 3d b8 24 b9 3d b2 37 2e be 06 20 5e 3e
       0.054599024 0.09040207 -0.17013434 0.21691903
000310 99 8f 24 be 02 4c 47 3e 9e ec 81 3d 4b 0a 80 be
       -0.16070403 0.19462588 0.06343959 -0.25007853
000320 c0 58 f7 3d f4 e1 ae bd 87 f4 8f be 52 44 77 3e
       0.120774746 -0.08539191 -0.28116247 0.24147156
000330 b2 4a 3d 3e 22 3e 8c 3e 52 6e 66 3c 5e 7a 0c be
       0.18485525 0.27391154 0.014064388 -0.13718554
000340 3f e0 c8 bd 47 ab 92 3d 8f a5 ff 3c c4 74 0f 3e
       -0.098083965 0.07161575 0.031206874 0.14009386
000350 7d 89 bd 3d d1 d8 7d bd 6a 69 4f 3e 95 32 e5 bd
       0.092547394 -0.06197435 0.20255056 -0.111912884
000360 2f 80 fa bc 06 a7 b0 bd 11 32 11 be 5e b3 ba bd
       -0.0305787 -0.08625607 -0.14179255 -0.09116243
000370 af b2 04 3e 3c 27 1a 3b 4d 94 3d be 8f 10 20 be
       0.12958787 0.002352192 -0.18513604 -0.15631317
000380 d5 13 29 3c 10 7e a5 be cf b9 07 be 7c 58 92 be
       0.01031967 -0.3232274 -0.13254474 -0.28583133
000390 94 0f ba bb 3d bb b9 bd c8 6a 7c bb d7 aa 12 be
       -0.0056781266 -0.09068916 -0.0038515795 -0.14322983
0003a0 32 91 1f bd ca 80 9a bd ee 4e 37 3d 32 e1 32 be
       -0.03895683 -0.07544096 0.044753008 -0.17468718
0003b0 45 b0 c4 3d ba b5 75 be f9 9c 11 3b 0f ef 45 3e
       0.09603933 -0.23995104 0.0022218807 0.19329475
0003c0 01 57 49 3d 20 bf f6 bd 2c b4 8d bd 31 4a dc bd
       0.04915524 -0.12048173 -0.06919131 -0.107563384
0003d0 b5 de 66 be ef 09 ad 3d 2f 4d dd 3b 00 86 27 3e
       -0.22545893 0.0844916 0.0067535858 0.1635971
0003e0 54 e7 6d 3d 75 77 0b bd 83 57 2d 3e c5 89 08 3e
       0.05808194 -0.03404947 0.16927914 0.13333805
0003f0 65 b3 dc 3a e3 19 b9 bc 2d 41 42 be 30 83 c1 bc
       0.0016838132 -0.022595352 -0.18970175 -0.023622125

fc2.bias f4 [64]
000000 99 30 b3 3c 16 f9 b6 bd f8 73 00 3d de b2 59 bd
       0.02187376 -0.08934228 0.031360596 -0.053149097
000010 54 e2 78 3d c5 13 e5 bd 24 80 02 3d cf bb b9 3c
       0.06076272 -0.11185411 0.031860486 0.022672562
000020 52 ac eb bd 6f a6 5e 3e d2 ba 3d 3d a3 5e 55 3c
       -0.11507477 0.21743177 0.046320744 0.013023051
000030 66 69 4c bd 0c c1 e7 3d c5 cb ea 3d 82 f7 12 3e
       -0.049905203 0.11316118 0.11464647 0.14352229
000040 1d 64 cf bd 64 c7 96 bd fd 42 1c 3d d2 b9 e8 bd
       -0.10126517 -0.073622495 0.038149823 -0.113635674
000050 44 e1 02 3e a3 c5 c2 3d 17 97 07 3c fd a3 15 3e
       0.12781245 0.095103525 0.008275769 0.14613338
000060 8d e5 0e 3e ff 63 a8 bd 51 77 b1 bc 3c 29 35 3e
       0.13954754 -0.08222198 -0.02166334 0.17691511
000070 ea 59 ca 3d 4d 30 5a bd 54 d0 4c be 03 82 68 bd
       0.09880431 -0.05326872 -0.20001346 -0.056764614
000080 5c a1 da 3c 58 3a 36 3d 2a 52 3b bd ed fb 2d be
       0.02668827 0.044489235 -0.045732655 -0.16990633
000090 05 c8 09 bd b1 05 e0 3d 6f b8 bd 3d 8c 26 18 be
       -0.03363802 0.109385855 0.092636935 -0.14858454
0000a0 a8 ae bc 3d 4f 94 09 bc 26 74 c0 bd f4 e4 8a 3d
       0.092130005 -0.008397176 -0.093971536 0.067819506
0000b0 b4 93 26 3d df b8 ec bd 4a 20 cd 3c f0 4b 5d bd
       0.040668204 -0.11558699 0.02503981 -0.054027498
0000c0 62 73 97 3d b3 31 d5 bd 05 69 f2 bb dc 4f af bd
       0.073950544 -0.1040987 -0.007397773 -0.08560154
0000d0 a4 67 df bc e9 a4 10 3e 45 84 8f bd 4b c8 02 3e
       -0.0272711 0.14125408 -0.0700765 0.12771718
0000e0 24 36 49 3e d7 05 51 bd 66 a8 4b 3e a9 4d 12 be
       0.1964956 -0.05103096 0.19888458 -0.14287437
0000f0 10 ab 85 bd 88 ba 19 3e e9 55 62 bd 56 d0 db 3d
       -0.06526768 0.15012562 -0.05525771 0.10733096

fc3.weight f4 [10, 64]
000000 32 8b 8a bd 03 b8 7b 3e 2a 5f 5b be 1d f0 45 be
       -0.06764831 0.24581914 -0.21423021 -0.19329877
000010 b2 97 a7 bd 6c ea 06 be 01 1b b5 bd 6e 8d 9a be
       -0.081832305 -0.13175362 -0.08843041 -0.30186027
000020 8f 55 78 3d 98 ec 30 3e bc a8 37 be 56 c8 91 be
       0.06062847 0.17277753 -0.17935461 -0.28473157
000030 af b2 2c be 1d 32 70 3c 2a b5 5e be 3c e8 10 3e
       -0.16865037 0.014660385 -0.21748796 0.1415109
000040 1f 82 bf 3d e9 3a 9b 3d 7c 86 18 be 86 39 fe 3d
       0.093509905 0.075795956 -0.14895052 0.124133155
000050 9e 6e 16 3e 55 29 8d be 3e 25 5b 3e 5c 1d b8 be
       0.14690635 -0.27570596 0.21400926 -0.359599
000060 50 89 48 bc b9 c1 2d 3e a2 d7 dd bd e7 d5 35 be
       -0.012239769 0.1696843 -0.10832144 -0.17757379
000070 a7 21 52 bd af ba bb bd fc 66 71 3e ac 0b 39 3e
       -0.051301625 -0.091664664 0.23574442 0.18070859
000080 69 70 8d be 96 a4 86 be 48 b1 1a be b8 38 a4 bb
       -0.27624825 -0.26297444 -0.1510669 -0.005011644
000090 f9 4b 2f be 69 9e 3f be fe 1f 12 3e 33 1e c6 3d
       -0.17118825 -0.18712772 0.14270017 0.09673729
0000a0 ce 69 c7 be ab 27 a8 bd 9c 28 d0 3d 26 53 7d 3d
       -0.3894791 -0.08210691 0.101639956 0.061846875
0000b0 12 64 f9 bd ca 82 39 3d c5 bb a1 3d e9 2b 86 bd
       -0.1217729 0.045290746 0.07897142 -0.06551344
0000c0 0d 15 ac bb cd 7d 30 3c b2 15 db 3d a5 67 a2 3b
       -0.005251533 0.010772181 0.106974974 0.004956203
0000d0 5f 84 b2 bd a5 48 8c bd 19 a6 8f bd 77 2f 0a be
       -0.08716654 -0.06849793 -0.070141025 -0.13494669
0000e0 39 d9 81 be 20 03 08 3e 4f 34 56 3e c6 a0 07 3e
       -0.2536104 0.13282442 0.20918392 0.13244924
0000f0 07 e0 9c bd 33 13 37 ba e2 2c 0e 3d 79 9f 1b bd
       -0.07659917 -0.0006983757 0.034710772 -0.03799388
000100 07 2a a9 3d e5 ce 3a be 8b 29 55 3e f1 61 15 3e
       0.08259969 -0.18242987 0.20816629 0.14588143
000110 1c 42 b5 3d 37 61 d5 bc b5 c8 13 be 2f 2e 9b bd
       0.088505 -0.026047332 -0.14432032 -0.07577168
000120 e5 9f 3c bd 3b 10 c5 3d 33 64 43 be ce ee 08 be
       -0.046050925 0.09622236 -0.19081192 -0.13372347
000130 10 76 4c 3c 67 3a 33 be 4f 19 34 3e 1a a7 6c 3d
       0.01247932 -0.17502747 0.1758778 0.057776548
000140 ff 8b c6 3b 86 a2 82 be b8 5c e1 be 7b c5 33 be
       0.0060591693 -0.2551462 -0.4401605 -0.17555802
000150 d3 1d 51 3e 2b 55 68 3e 94 f0 89 bc ac bb 2b 3e
       0.20421533 0.22688739 -0.01683835 0.1677081
000160 09 8a 78 3e 3f 85 4b be e0 d5 aa be 42 39 56 3d
       0.24271406 -0.19875048 -0.333663 0.0523007
000170 d8 c5 5a 3e 26 c8 66 be 2e 79 89 bd 90 12 09 bd
       0.21364534 -0.22537288 -0.06712566 -0.03346497
000180 c5 5b 2d 3e 6c 78 88 3d 64 08 75 be 84 17 73 be
       0.16929539 0.06663594 -0.23928982 -0.23739439
000190 9d e1 e1 3d bc 0f be bd 58 e4 9a 3d 85 11 26 be
       0.110293604 -0.09280345 0.07563084 -0.1621762
0001a0 2a 5c fb bb ee 68 9d bc 41 09 2e be 5d fd 6f be
       -0.007670899 -0.019215073 -0.16995718 -0.23436494
0001b0 05 54 97 3d da d5 94 be c9 f1 a3 3e 89 71 01 be
       0.07389072 -0.29069406 0.32020405 -0.12640966
0001c0 49 8e 9b be 8f e9 4c bd 01 de 0f bd 9b 4a ab bd
       -0.30381992 -0.050027426 -0.03512383 -0.08363839
0001d0 ec c7 45 bd fd d8 46 3e ef 98 cf bd f3 5d 0a be
       -0.048286363 0.19418712 -0.10136592 -0.13512401
0001e0 40 68 76 3d 7e dd 4c 3d 8b 69 29 bd ad 75 d0 bd
       0.060158014 0.05001592 -0.04136042 -0.10178695
0001f0 7d cf d3 bd 1d ab 8d 3d 28 ad 69 3e 47 f0 6a 3e
       -0.103423096 0.06917403 0.2281996 0.22943221
000200 bf 61 6d bc 46 bc 4f be 1a a7 47 3e 97 f5 fc bd
       -0.0144886365 -0.20286664 0.19497338 -0.1235153
000210 da 88 af bc d6 d4 41 3e 85 48 95 bd c9 d5 19 3c
       -0.02142756 0.18928847 -0.07289223 0.009389349
000220 c6 1e a0 bd 28 f3 03 3c 47 cb e9 3d 5c cf ef bc
       -0.078183696 0.008053578 0.11415725 -0.029273681
000230 3e 18 e8 3d 9e 56 a7 bd eb 30 0b bd d1 56 d3 bb
       0.11332749 -0.08170818 -0.0339822 -0.0064495583
000240 0f cb 71 bd 75 bc f8 3d 5a 27 cf bd d7 c6 c6 3d
       -0.059031542 0.1214532 -0.101149276 0.097058944
000250 ea da 62 be 29 e6 9f be 21 de b7 3d 2b d5 ad 3d
       -0.22153822 -0.31230286 0.089779146 0.08487924
000260 e5 10 7f bd 00 ec 69 3d cd b3 97 be be a0 9f bd
       -0.06227197 0.057109833 -0.29629365 -0.07794331
000270 19 a9 c5 3c 2e e0 0b 3d 6c 74 74 3e 63 f7 76 3d
       0.024128484 0.03414934 0.23872536 0.06029452
000280 b4 e3 2c 3d df 86 5d 3c 45 f5 05 3e b9 67 5c 3e
       0.042209342 0.013520925 0.13081844 0.21523942
000290 b7 93 74 3d 04 fa 0a 3d 21 ac cf 3d b8 3b 7f 3e
       0.059711184 0.03392984 0.10140253 0.24925125
0002a0 99 8e 59 be d5 94 93 bc 3e 57 d2 be f8 85 01 be
       -0.21245803 -0.018015305 -0.41082186 -0.12648761
0002b0 a7 76 34 3e 44 37 3e be 69 c5 34 3d d9 89 d4 3d
       0.17623387 -0.1857577 0.044133577 0.10377855
0002c0 df 02 45 be af aa 40 3e e0 e7 39 bc c5 40 f5 3d
       -0.19239376 0.1881511 -0.011346787 0.119752444
0002d0 0a af 63 bd df 12 83 bd 07 f4 1c 3e 2e c8 c6 3d
       -0.055586852 -0.06400084 0.15327464 0.0970615
0002e0 e6 a7 81 be df 88 81 bd 0e 07 9f bd 8f 50 67 be
       -0.2532341 -0.06324934 -0.077650174 -0.22589324
0002f0 6e 92 25 3e b1 a9 0d be b4 15 1b be 76 34 9b be
       0.1616914 -0.13834263 -0.15144998 -0.30313462
000300 90 e0 d4 3d 9a aa 82 be 64 fa 29 be 0d d4 c5 bd
       0.103943944 -0.25520784 -0.16599423 -0.09659586
000310 6c ce 26 3e 19 f3 0b be 1b e2 81 be 00 6a 5e 3c
       0.16289681 -0.13666953 -0.25367817 0.013575077
000320 6e ea 35 bd 88 a6 5b 3e ed b2 4a 3e 91 1c 49 be
       -0.044413023 0.21450245 0.19794817 -0.19639803
000330 1a 2e 46 3e 02 44 28 3e a7 4f 3c 3e 57 89 19 3e
       0.19353524 0.16432193 0.1838976 0.14993797
000340 1a 96 77 be 74 b0 de 3c d5 33 d1 3c 9f 4c 88 be
       -0.24178353 0.027183749 0.02553741 -0.26620957
000350 89 91 c9 bd 44 ac 73 be 7a f9 0d 3b 27 5d 56 3e
       -0.09842212 -0.23796183 0.0021663592 0.20933972
000360 2f e9 ba bd 40 52 0e be 46 f0 96 be c7 55 e2 bc
       -0.091265075 -0.13898563 -0.2948019 -0.027628792
000370 f6 2f 48 bc 02 34 f5 3c 30 08 35 3d 00 16 c8 3d
       -0.012218466 0.029932026 0.04419726 0.09769821
000380 45 a5 b1 bd fe 30 15 be 85 36 99 3d 34 e3 bc bb
       -0.08674101 -0.1456947 0.07481102 -0.0057643894
000390 e9 aa aa bd d2 1f fe 3d 77 d3 5f be e7 10 83 be
       -0.0833338 0.12408413 -0.21858011 -0.25598833
0003a0 f1 f7 90 bd 54 10 3c 3e 73 e0 90 be de f7 fb 3c
       -0.07078541 0.18365604 -0.2829624 0.03075784
0003b0 70 a8 e1 bd 78 5e 43 bd 7a fb ac be 8a d9 aa 3d
       -0.11018455 -0.047697514 -0.3378561 0.083422735
0003c0 dc d0 86 3d 92 6d 8b 3c f8 a7 ac bd 71 33 8c bc
       0.065828055 0.01702002 -0.08430475 -0.017114373
0003d0 54 d5 a0 bd 6a 5a 88 be 77 92 87 3d c9 ed 6a bd
       -0.07853189 -0.2663148 0.06619733 -0.057355676
0003e0 84 6a 2d 3e 55 c9 f0 bd bc 1a 07 3d 39 74 f9 3b
       0.16935164 -0.11757151 0.03298448 0.007612732
0003f0 60 d0 34 3e 5c a4 5a 3e 07 bb df bd 23 c9 23 3e
       0.17657614 0.2135176 -0.109243445 0.15994696

fc3.bias f4 [10]
000000 71 5d cd bc f3 46 17 3e 49 0c 5a be bf d1 38 3e
       -0.02506897 0.14773159 -0.21293749 0.18048762
000010 ed d2 4f bd 1a 36 e3 bb c1 7c cc bd d9 d9 f4 bc
       -0.050738264 -0.0069339396 -0.099847324 -0.029889034
000020 0a dc 58 3e b6 ed d9 3d
       0.21177688 0.10641043
